src/gesture_recognition/gesture_classifier.pt (torch, 68007 bytes, 8 tensors)

layers.0.weight f4 [128, 42]
000000 18 ed 89 bd 92 9e 84 3b f2 f8 f2 3c 89 66 95 bb
       -0.06734675 0.0040472234 0.029659722 -0.0045593423
000010 d1 e4 b6 bc 15 fd 7c 3d 4f b3 4e 3d 2b 86 4e 3e
       -0.022325905 0.061764795 0.05046397 0.20168369
000020 90 a4 ad bd 99 5a 89 3e a5 c2 e1 bc 76 d0 10 3e
       -0.084786534 0.26826933 -0.027558634 0.14142022
000030 5b f5 dc bd ed d2 2b bd 18 3f 20 3d b3 0b 72 be
       -0.10788985 -0.0419492 0.03912267 -0.23637275
000040 60 03 2d 3e dd 46 31 bf 88 24 53 bd 14 14 bf 3c
       0.16895819 -0.69248754 -0.05154851 0.023325004
000050 c5 1a aa 3c 8c 90 0b bc 44 12 12 ba 6a 08 bb bd
       0.020764718 -0.008518349 -0.000557218 -0.09132464
000060 2f 06 22 be 6b d5 70 be 64 d8 fc bc 48 7f 12 3d
       -0.15822671 -0.23518912 -0.030864902 0.035765916
000070 12 25 6a 3d 1e 48 a2 3c 24 29 1c 3e 9b 59 8d 3e
       0.05716426 0.019809779 0.15250069 0.27607426
000080 b7 17 04 3e ac 5d 3c 3e fc c0 cf bb 50 2a 31 bd
       0.12899671 0.18395108 -0.006340144 -0.043253243
000090 bb 80 37 3c 64 53 96 bd 09 71 83 3b f7 0a 1d 3e
       0.011200125 -0.07340124 0.0040112776 0.15336214
0000a0 a6 83 1b be 40 c1 9f 3d 41 e5 8f bd 9f 20 3a be
       -0.15186939 0.078005314 -0.070261486 -0.18176506
0000b0 24 d6 da 3d ac af a2 3d 3d 0e 40 3e 86 92 10 3e
       0.10685375 0.07943663 0.18755431 0.14118394
0000c0 c7 56 7f 3e d4 6b 50 3e d3 14 c4 3e 18 34 7f 3e
       0.24935447 0.20353633 0.38297138 0.24922216
0000d0 2e 07 b2 bd 1f 1e 7d 3c 7b bf 3d be 88 4a 87 bd
       -0.08692776 0.015449076 -0.18530075 -0.066060126
0000e0 1a d3 68 be ff 6f a0 be 6c 14 20 be 78 04 bf be
       -0.22736779 -0.31335446 -0.1563279 -0.37308097
0000f0 09 2f 6e bd 3f 6a 30 be b0 11 8d 3c 24 3f 80 3c
       -0.058150325 -0.1722803 0.017220348 0.015655108
000100 9b f3 2d ba 32 f4 35 3e e5 b0 34 3e 59 9f 84 3e
       -0.00066357263 0.17768934 0.17645605 0.25902823
000110 2d 85 27 be a4 a0 96 bb c8 b1 80 bd aa 27 0b 3e
       -0.16359396 -0.0045967866 -0.06283909 0.1358935
000120 44 a6 c7 bd 47 ba 2c 3e 7a 11 c9 3d db f2 44 3e
       -0.097485095 0.16867934 0.098177865 0.19233267
000130 30 f0 bd bd 33 13 8e be 18 94 90 bd 4a b3 d9 bd
       -0.09274328 -0.27749023 -0.07059497 -0.106299
000140 30 ea d8 3b b3 2e c2 bc 97 f9 d1 bc 8a 8f a3 bd
       0.006619714 -0.023703909 -0.025631709 -0.07986362
000150 79 45 4a bc 22 68 8d bc 3a 2b 86 3d 98 cb 52 3d
       -0.012345665 -0.017261568 0.065512136 0.051463693
000160 65 aa fa 3d 2c 2e 12 be f1 9a 45 3c 7c 58 2c bd
       0.122395314 -0.14275426 0.012060867 -0.042076573
000170 cd 9b 31 bd 96 2a a6 3d 5a 94 0c be 68 e1 04 3e
       -0.043361474 0.081135914 -0.13728467 0.1297661
000180 d6 f8 c9 bd be f7 3b bc 75 97 94 3d 2b 1d 38 bc
       -0.09861915 -0.011472641 0.07255451 -0.011237423
000190 9f eb dc bd 1b 2a dc 3d a1 a7 dc bc 44 4c 60 bb
       -0.10787129 0.107502185 -0.0269354 -0.0034225145
0001a0 da c0 39 3d 6e b1 ae 3b 26 01 28 bd 8e 61 19 3d
       0.045349933 0.00533121 -0.04101672 0.03744655
0001b0 7f 6e d0 bd 89 d1 0d bd e7 31 5a bd 58 51 33 3d
       -0.101773255 -0.034623656 -0.053270247 0.043778747
0001c0 a4 15 24 3c 45 97 4d be c0 a1 8f 3d 6c 9d 60 be
       0.010014925 -0.20077236 0.07013273 -0.21935052
0001d0 c6 dd 45 3d 16 4e 1d be 92 8f ee bc e2 af 38 bd
       0.048307203 -0.15361819 -0.029121194 -0.04508961
0001e0 0d 69 ce bc 95 f1 b1 bd ba 43 24 be f5 aa 11 bd
       -0.025196576 -0.08688656 -0.1604146 -0.035563428
0001f0 e6 2e 8f 3d 47 03 30 be f2 be 31 3e 2c 3e d8 3d
       0.06991367 -0.1718875 0.17357996 0.10558733
000200 7f 6d 0e 3d a1 17 bc 3d 2e 38 b0 bd 59 d1 25 3e
       0.034772392 0.09184194 -0.086044654 0.16193141
000210 69 73 96 3c 5c 88 2c 3e a2 90 7e bd 0b b0 7c 3d
       0.018365579 0.16848892 -0.06214965 0.061691325
000220 cd b0 59 bd 0a c1 f5 3d a5 b5 19 3c 13 48 48 3e
       -0.053147126 0.1199971 0.009381686 0.19558744
000230 39 7c ae 3d 93 d3 b2 bd 36 44 e8 bc 65 5d a0 be
       0.08519787 -0.08731761 -0.028352838 -0.31321254
000240 f4 be a7 3c cd 8b f9 3d b2 3d 1b 3d 21 2d 52 bd
       0.020476796 0.12184868 0.037900634 -0.05131257
000250 08 cb c1 3d e2 70 b5 be a1 9b 04 be 1d ac cc be
       0.09462553 -0.35437685 -0.12949993 -0.39975062
000260 09 2d f3 bd 63 23 8c 3d dd 79 24 be 25 e1 10 3e
       -0.11873824 0.06842687 -0.16062112 0.14148386
000270 e3 09 a7 bc 9e 7f 47 bd b4 c6 37 bd ce f4 cc bd
       -0.020390457 -0.04870569 -0.044867232 -0.1000763
000280 36 58 ed bd eb 91 fd 3d f2 a1 a8 bd 5a bc 62 bc
       -0.115890905 0.12381347 -0.082340136 -0.013838852
000290 fa 44 06 bd e2 f4 2c bd ea bb a3 3d d3 f0 bb bc
       -0.032780625 -0.042225726 0.07994826 -0.022941982
0002a0 4b 57 e0 bd 47 92 b3 be 82 3f a2 bd bb 20 53 be
       -0.1095415 -0.35072538 -0.079222694 -0.20617954
0002b0 92 d1 c4 bb bb 6a aa 3d 11 19 07 3e a2 8a 6e 3e
       -0.006006428 0.083211385 0.13193156 0.23295072
0002c0 3b 06 13 3e 6a 3a f0 3e 97 5f 2e be 04 c3 51 bc
       0.14357845 0.46919566 -0.17028652 -0.012802843
0002d0 fc 4d f4 3d 68 fa 84 bd 32 27 22 3a a7 5d 23 3e
       0.11928937 -0.06493074 0.000618565 0.15953694
0002e0 23 9f a7 3d 8c 8f 42 3d df f0 05 be 83 73 39 bd
       0.0818465 0.04750018 -0.13080166 -0.045276176
0002f0 b5 8f 4c bd 6e 1d 34 3e d8 7d 1d 3e e3 b8 9a 3d
       -0.049941737 0.17589352 0.15380037 0.075547956
000300 52 ef 28 3e 40 05 ee 3d 59 82 a5 3d fd fc f0 bd
       0.16497543 0.11622095 0.080815025 -0.11767004
000310 c5 cc de bc 30 c8 31 3d 83 8d e9 bd b3 70 30 3d
       -0.027197251 0.043403804 -0.11403944 0.04307623
000320 d5 f5 8b 3d bc a7 bc 3d 57 b3 29 bc 62 cc 6c be
       0.06833998 0.0921168 -0.010357699 -0.23124841
000330 a6 7d 6f 3d b8 b9 89 be 6e 4f 18 be 63 4c 60 be
       0.058469437 -0.26899505 -0.1487405 -0.21904139
000340 b3 e8 2f 3d 2a 66 40 be e5 ac 42 3c 6f 3d 62 be
       0.04294653 -0.18788972 0.011882042 -0.22093748
000350 7a 6e a5 bd b2 c8 0a 3e 25 9f f8 3c ec 36 1b bc
       -0.08077712 0.13553122 0.030349324 -0.009473544
000360 32 69 83 be 4a 91 a1 3d 0e 2d af be 80 39 15 be
       -0.25666195 0.0788904 -0.34214061 -0.14572716
000370 cf 6f ff 3c 49 96 9b bd 49 9c 2a 3e db 49 e7 bd
       0.031181244 -0.07597024 0.1666118 -0.11293384
000380 9c 62 c1 3d 4e f5 b6 be 9b 25 5e 3e 8e 1e bf be
       0.09442636 -0.35734028 0.21694033 -0.37328
000390 18 ff 82 bd 57 0d 2a 3d b6 2a 60 3e dd 1b f5 bd
       -0.063963115 0.041516628 0.21891293 -0.11968205
0003a0 9c 04 81 3d 18 3a e7 3c c1 53 b4 bd 4b 53 6c bc
       0.06299707 0.028225943 -0.08805037 -0.0144241555
0003b0 38 d7 22 bd c7 44 0a 3d 8e 00 24 bd 1f dc 0b 3e
       -0.03975603 0.033756997 -0.04003959 0.13658188
0003c0 cc 45 6f bd 71 8e d9 3c 1c b8 8d bb 97 d7 6c 3e
       -0.058416173 0.02655718 -0.004324926 0.23129116
0003d0 9f 61 11 bd 73 b5 1b 3d 77 4c ab 3c 81 b3 9d bc
       -0.03549349 0.03801484 0.020910485 -0.019250633
0003e0 c6 91 97 bc d5 36 2d 3e 79 20 9f bc 25 ca 8a 3e
       -0.018502127 0.16915448 -0.019424664 0.2710735
0003f0 d8 9d 26 bd 27 d1 89 ba 81 59 aa bd 3f 45 c9 3c
       -0.040677875 -0.0010514603 -0.08317853 0.024569152

layers.0.bias f4 [128]
000000 fa 82 dd bb 4c 34 19 bd df 88 1c 3e 86 5c 0e bd
       -0.0067599984 -0.03740339 0.15286587 -0.034756206
000010 77 10 1a bd cc 46 d4 bd 25 1e cf 3c 25 8f 4b 3d
       -0.03761336 -0.10365066 0.025282929 0.04969706
000020 d8 76 59 bc 87 33 0e 3e b6 a0 d3 bd ff a9 b4 bd
       -0.013272963 0.13886844 -0.103333876 -0.08821487
000030 87 4f af 3d fc 96 05 bd e2 f2 0f 3d 4d d5 ac bd
       0.085600905 -0.032614693 0.03514374 -0.084391214
000040 e5 15 4e bc af 43 18 be 98 2e 16 bb dc ff 12 3e
       -0.012578462 -0.14869569 -0.0022915956 0.14355415
000050 bf a7 27 bd db 9b 18 be 31 f7 ba 3b 40 5f 93 bd
       -0.04093146 -0.14903204 0.005705737 -0.07195902
000060 77 7c b1 3d b2 67 c2 bd da 53 d6 bd ac 15 31 bd
       0.08666318 -0.094924346 -0.10465212 -0.04323356
000070 9b 32 d9 bd f5 7f 2f bd 9a 7b cd bd 85 10 8f 3d
       -0.10605355 -0.04284664 -0.10033341 0.06985573
000080 a5 6e e7 3d 80 d5 bd 3d 17 40 18 be ef 8c 01 be
       0.11300401 0.092692375 -0.14868198 -0.12651418
000090 40 c1 6b bc ba 05 c6 3d 35 09 2b be 73 ca ef bd
       -0.014389336 0.09669061 -0.16702731 -0.11708536
0000a0 e9 f9 25 3e b4 f6 08 bd 4d 99 4b 3e fe 8a 01 bd
       0.16208614 -0.0334384 0.19882698 -0.031626694
0000b0 ed e4 3d bd 29 f7 eb bd b7 cf e5 bd 12 b8 ab bd
       -0.0463609 -0.115217514 -0.11221259 -0.08384718
0000c0 e7 c0 bf bd 7c f2 f6 3d bb 85 a7 3d d1 3a f8 3d
       -0.09362965 0.12057969 0.08179804 0.12120593
0000d0 38 07 17 be c4 c1 fe bd 53 1b bc 3c bb 2c 6f 3c
       -0.14748847 -0.124393016 0.022962248 0.014598067
0000e0 1a b0 a5 bd 3a 9c d3 bd 1a 76 23 3d 89 31 a9 3d
       -0.08090229 -0.10332532 0.039907552 0.08261401
0000f0 d2 cf 0b 3c 74 2c 0f be 07 89 83 bd 21 32 0a be
       0.008533435 -0.13981801 -0.0642262 -0.13495685
000100 5a f4 91 3d 87 17 8e bd 6c 8f a9 3c 91 2f b1 bb
       0.071266845 -0.06938081 0.020698272 -0.0054072817
000110 73 15 1e 3d c5 cc 1d be 13 4c 0a 3e 46 15 81 3d
       0.038594674 -0.15410145 0.13505583 0.06302886
000120 20 5d fc bc 55 5b e4 bc 52 9b 39 be 23 3e a9 bd
       -0.030806124 -0.027875582 -0.18125656 -0.08263805
000130 87 10 16 be 06 17 b2 3d 5a 22 30 bd 9a 31 f5 bd
       -0.14654742 0.086957976 -0.04300151 -0.11972351
000140 75 c6 e5 3d 61 b3 d2 bd af 8e 4a 3a 30 52 fc bd
       0.11219493 -0.1028812 0.000772695 -0.123203635
000150 b3 e5 59 3d 4d 99 3e 3d 3f c1 24 be 94 e4 0e 3e
       0.053197574 0.046532918 -0.16089343 0.13954383
000160 57 04 10 3e 2e 83 0b be ae 33 ff bd a1 47 ee bc
       0.14064156 -0.1362426 -0.12461029 -0.02908689
000170 bc a7 1a 3c 21 ba 7a bd 1a 38 d5 bc a6 99 86 bc
       0.009439405 -0.061212663 -0.026027728 -0.016430687
000180 1f 96 e1 3d 24 2a 27 bd cd 08 69 3c fe a3 07 be
       0.110149615 -0.040811673 0.01422329 -0.13246152
000190 4b 6d 8f 3e 77 84 e2 bd 08 4e b7 3d 91 e6 5b 3d
       0.2801307 -0.11060422 0.0895043 0.053686682
0001a0 f6 b8 c5 bd 0d 0d 82 be 25 8e 0b bd 4c a3 91 bc
       -0.09654419 -0.25400582 -0.034071106 -0.017778061
0001b0 1b 1a 54 3a bd 99 d2 bd 08 b0 c6 3d b2 63 b5 bd
       0.0008091048 -0.102832295 0.09701544 -0.08856906
0001c0 35 05 0d be 31 02 e6 3c e6 3a 3e 3c c6 6f 4c bd
       -0.13771518 0.028077217 0.011610722 -0.049911283
0001d0 f2 29 ff 3d d0 11 8b 3d 41 8f f7 3d 5d e9 0b 3d
       0.12459172 0.06790507 0.120878704 0.0341581
0001e0 a3 7e 17 bc 35 fb a8 bb bc 8f 3d 3e 46 ca 00 3e
       -0.009246501 -0.0051568993 0.18511862 0.12577161
0001f0 87 4f ab bd 80 8b 73 3d 0b 0a a7 bc 7e 92 9f bd
       -0.08364778 0.05945921 -0.020390531 -0.07791613

layers.3.weight f4 [64, 128]
000000 1d 67 a8 3e c2 1d 0c bd 7c ba d4 3c c0 e9 12 3e
       0.3289117 -0.034208067 0.025967829 0.14346981
000010 9e 2e c8 be 9f ac e5 3e e3 5d 99 3d e3 ee b8 be
       -0.39098066 0.44858262 0.074886106 -0.36119756
000020 82 90 c2 3e bb 25 f3 bd 37 70 21 3d 75 80 a9 3d
       0.38000876 -0.11872431 0.039413657 0.08276454
000030 d0 65 c0 3e ac 69 48 3e 31 f4 88 bd 17 28 53 3d
       0.37577677 0.1957156 -0.06687201 0.051551905
000040 b3 b6 ea bd 71 78 84 3d c4 6a c8 be dc 28 99 be
       -0.11460628 0.06468285 -0.39143956 -0.29913986
000050 4e df f3 3d 0a cd 8c bd 6c d0 64 bd 74 57 65 3d
       0.11907826 -0.068750456 -0.05586283 0.055991605
000060 15 67 25 be e1 e1 f3 3d e0 da 3d 3e 7b 6e 4b bd
       -0.16152604 0.11908317 0.18540525 -0.04966591
000070 c2 2b 4d bc f7 c1 4a 3e 85 a7 94 3e ed ff b2 3d
       -0.01252264 0.19800554 0.29034057 0.0874022
000080 d8 c8 8b 3d f9 90 06 be 81 5f 23 bd 04 80 25 bc
       0.06825417 -0.1314124 -0.039886 -0.010101322
000090 ad 58 2e 3d a9 a5 9d be 83 f9 b0 be bb b7 fe 3c
       0.042565037 -0.3079045 -0.34565362 0.031093469
0000a0 72 89 0c 3e 02 3a 74 3e ba d3 8a 3e f3 6a 15 3e
       0.13724306 0.23850253 0.2711466 0.14591579
0000b0 2b 04 02 3d 93 dd a4 3d f0 23 5b bd 23 b7 d6 bd
       0.031742256 0.080500744 -0.05350107 -0.10484149
0000c0 07 b4 b0 bc 77 c5 ff bd b1 25 28 3e 84 28 8c bd
       -0.021570219 -0.12488835 0.16420628 -0.06843665
0000d0 f7 b8 b3 3d 27 6b 8d 3d 97 9c 8b 3d 72 c3 53 bd
       0.087755136 0.06905203 0.068169765 -0.051700063
0000e0 e8 0e 40 bd ac 96 1b bd f3 73 d0 3e f2 5b 80 be
       -0.046889216 -0.03798549 0.40713462 -0.2507015
0000f0 5b c7 cf 3c 85 81 f5 bd c1 7f 37 3d 0b f7 05 bc
       0.025363615 -0.119875945 0.04479957 -0.008176575
000100 50 5c 83 bd 54 8c f1 3b a6 e4 e1 bd 83 c4 08 be
       -0.064140916 0.0073714647 -0.11029939 -0.13356213
000110 06 bf 38 3d 1b 38 ad bd de 90 61 be 02 14 3d bc
       0.04510405 -0.08457967 -0.22027919 -0.011540415
000120 8e 94 2e 3d 67 bc 41 3d e3 47 8f 3d 8d 3d 86 3d
       0.04262214 0.047298815 0.06996133 0.06554709
000130 c0 b7 94 3d 4e 0e 03 3f b4 fd 66 bc 6a 31 08 3d
       0.0726161 0.511937 -0.0140985735 0.03325025
000140 39 2f 28 3d 6d 30 6a bd 21 0b d7 be 8c 6e 0c 3c
       0.04106066 -0.05717509 -0.42000678 0.008571278
000150 f2 da 1f 3e 92 76 57 3a bf 55 dd 3e 53 2b b4 be
       0.15610865 0.00082192675 0.43229482 -0.35189304
000160 db df 95 3d a0 ad 4f 3d b2 0e 44 3f 04 f1 f5 3d
       0.07318088 0.05070269 0.76584923 0.12008861
000170 8a 7d 90 3d 71 4a 27 3e 59 f9 fa be 7d 5c ad bd
       0.07055195 0.16336991 -0.49018362 -0.08464906
000180 2e 4c ea be 03 ce ab 3e fc a3 47 be f5 1c a2 bc
       -0.45761245 0.33555612 -0.19496149 -0.019789198
000190 8f 2a 2d 3d 2a 28 95 bc 33 00 9f 3e 43 0f b9 bd
       0.042276915 -0.018207628 0.3105484 -0.09036114
0001a0 44 dc a4 3d e5 d4 ae be f2 fc 82 bd fa df 3c be
       0.08049825 -0.341468 -0.06395902 -0.18444815
0001b0 76 c8 2c 3e 0a f9 5c bd 9c 6b f2 be 59 62 8e 3d
       0.16873345 -0.05394844 -0.47347724 0.06952352
0001c0 e6 e8 8b 3d c7 e2 a8 bc 32 68 70 3e 31 05 3c 3e
       0.06831531 -0.020615948 0.23477247 0.18361355
0001d0 0d 94 a4 bd bd 42 08 be 0d 7d 09 be f2 29 17 be
       -0.08036051 -0.13306709 -0.1342661 -0.14762095
0001e0 d2 e4 5a bd 57 ab d7 bc c7 a6 ef 3d 20 4c a4 bc
       -0.053440876 -0.026326818 0.11701732 -0.02005583
0001f0 e8 4b b5 bc 3d 72 ad bc 3c 1b 2a 3e c1 89 f4 bc
       -0.022130921 -0.021172637 0.16611952 -0.029850842
000200 00 6a a4 3d ce b2 20 bf 98 7b 6d 3d 51 0b 9a 3e
       0.080280304 -0.62772834 0.057979196 0.3008676
000210 d7 24 e5 be 19 73 d9 bb 2f db fc 3c 3e 03 72 3c
       -0.4475467 -0.006636035 0.030866234 0.014771281
000220 0c b8 2d 3b 76 8e c4 be 64 b0 22 3d 72 b8 38 bc
       0.0026507406 -0.3838994 0.039719 -0.011274444
000230 c4 73 f6 ba 3f bf 18 3f 12 47 d7 3e 16 d4 72 bd
       -0.0018802811 0.5966682 0.4204641 -0.059284292
000240 c9 b0 4b be c4 11 98 3c c8 a7 f4 bd 27 94 3d 3e
       -0.19891657 0.018563159 -0.11946064 0.18513547
000250 57 17 d5 3e d6 77 84 3d 08 2a 86 3c 0a 7e 38 be
       0.4161937 0.064681694 0.016377464 -0.1801683
000260 d9 f7 99 be 02 17 13 3e 5e 2e fb 3e 88 81 ca bb
       -0.30071905 0.14364246 0.49058813 -0.006179992
000270 9f f5 a3 3d aa 25 0d 3e d6 04 20 bd e1 29 23 bd
       0.08005833 0.13783899 -0.039067112 -0.03983486
000280 15 63 18 bc e4 f1 7a 3d eb 6c a1 3d 8c 1d 14 3e
       -0.009300967 0.06126584 0.078821026 0.14464396
000290 54 ba 64 3e f1 73 80 be 6c c9 b5 bd 1e 63 56 3c
       0.22336704 -0.25088456 -0.08876309 0.013085155
0002a0 08 11 ee 3e fa 22 3d 3e 04 ce 23 3c 64 ff c5 3d
       0.4649737 0.18470374 0.009997848 0.096678525
0002b0 fd 05 78 bd f0 8f 9f bd 37 99 95 3d 84 71 07 be
       -0.060552586 -0.07791126 0.07304614 -0.13226897
0002c0 3a 7f d4 3b 53 8b 7e 3e 6e a7 0f be 66 bb a8 3d
       0.006484893 0.24857835 -0.14028713 0.082388684
0002d0 1b f2 ce 3e 03 49 8a 3e fb de 87 bd 60 a5 67 3c
       0.40419087 0.2700883 -0.06634327 0.01413855
0002e0 8d 0b 72 be ff bb 71 3c 75 c1 06 3e de 1d 57 3d
       -0.23637219 0.014754294 0.13159736 0.052518718
0002f0 c5 f8 81 bd 23 40 04 3e b4 fa c7 3e 68 89 95 3d
       -0.06346277 0.12915091 0.3905846 0.07301599
000300 56 93 4b 3d 4a 3b 39 be c5 0c a2 bd d6 cb 8b bc
       0.049701057 -0.18089023 -0.07912592 -0.01706497
000310 df 7d a1 3d f8 5d bf bc 71 08 05 3d c3 56 b7 bd
       0.07885336 -0.023360237 0.032478753 -0.08952095
000320 d6 20 7f bd 62 e6 ec bc 76 7e 27 3e 63 4e da be
       -0.062287174 -0.028918449 0.16356835 -0.4263793
000330 35 52 8f 3d ac c5 86 3e cd e7 e7 bc bb 30 8b 3d
       0.069981016 0.26322687 -0.028308773 0.06796404
000340 81 0c 03 3c bb 7d 9b 3d 05 ad 9f be 8e 14 eb 3c
       0.007998587 0.075923406 -0.3118669 0.028696325
000350 de 02 8d bd fc 16 0d bd a0 8f a8 3e 51 b4 81 be
       -0.068853125 -0.034445748 0.32922077 -0.25332883
000360 e4 ab e2 3d a7 93 35 bc 0f 6b a9 3d 2c f1 df bd
       0.11067942 -0.011082566 0.08272373 -0.10934672
000370 30 73 c6 be eb 19 10 be ba c4 82 bc 9c 48 06 bf
       -0.38759756 -0.14072387 -0.015962947 -0.52454543
000380 dc 11 3f be cc 87 83 bd 0c c7 8a be 11 7c 15 3d
       -0.18659157 -0.064223856 -0.27104986 0.036495272
000390 dc 11 64 3e 0c cb 10 bd 30 1a 25 3e 84 82 97 3e
       0.22272438 -0.03534989 0.16123271 0.29591763
0003a0 ec ad 53 bc 7d 22 db 3d c5 af 7a 3d c0 c8 78 3d
       -0.012919884 0.106999375 0.061202783 0.060738325
0003b0 42 d8 9e 3e 6f 4d a6 3d 9b 8d 61 bd bc 0d 63 3d
       0.31024367 0.08120238 -0.055066686 0.05543302
0003c0 82 3f a9 3d e2 d6 d2 3d 3a 84 02 3e 1a 74 bb bd
       0.08264066 0.10294892 0.12745753 -0.09153004
0003d0 8b 2a 7d 3d d1 e3 a1 be 79 14 97 3e 90 17 12 be
       0.06180815 -0.31619123 0.29507807 -0.14266801
0003e0 7d 85 db 3e 0a 96 7c bd 94 20 e5 3e 42 ad 14 3b
       0.4287528 -0.061666526 0.44751418 0.0022686278
0003f0 c3 b6 71 3c 8b 29 19 bd a7 af 64 bd f8 93 80 3b
       0.014753046 -0.037393134 -0.055831578 0.0039238892

layers.3.bias f4 [64]
000000 fb 4c 95 bb a6 7f c5 bc c0 d1 5d 3c 74 51 b4 bd
       -0.004556296 -0.02410872 0.013538778 -0.088045985
000010 ca 14 cc bd b6 cb fb 3b 29 2b 49 3e 38 f2 dc 3d
       -0.09964903 0.0076841963 0.1964537 0.10788387
000020 20 33 0f 3e b0 8b ae 3d 42 1c 05 3c 1e 0b c5 3d
       0.13984346 0.08522737 0.008124413 0.09621261
000030 e0 a4 bc 3a 99 6e ea 3d 9d 11 8c bd 13 3b 9f bc
       0.0014392398 0.11446876 -0.06839297 -0.019437348
000040 3f 06 97 bd 01 3f 01 3e 05 2b 31 bd 4c e3 cd bd
       -0.07374238 0.1262169 -0.043253917 -0.10053119
000050 4a 59 52 bc 19 1a ae 3d bf 0b 60 bd 29 68 81 3c
       -0.012838671 0.085010715 -0.054698702 0.015796738
000060 5f da f5 3d fe f8 71 3d 36 a6 6a 3c 43 f5 f8 3b
       0.120045416 0.059075348 0.014321854 0.007597597
000070 8b b7 c3 3d b8 71 12 3e 7f 67 ab bd eb a4 bd bc
       0.095564924 0.14301193 -0.0836935 -0.023149928
000080 a4 5d 45 3d c5 9f 10 3d 79 ea 8e 3d 6e fa 49 3d
       0.048185006 0.035308618 0.06978316 0.049311094
000090 6b 7b a5 3d 6d 01 d5 39 59 b8 a8 bd 9f 0e 12 3d
       0.08080181 0.00040627588 -0.082382865 0.035658475
0000a0 f7 72 9e bd b0 c6 76 3c af 84 f3 3c eb bc 23 3c
       -0.077367716 0.015062019 0.029726354 0.009993772
0000b0 41 fb aa bb ad 51 72 3d b2 68 3b 3e d2 62 de 3d
       -0.00521794 0.059159923 0.18301657 0.10858692
0000c0 2e 9f 06 3c fb ae a6 3d 00 5d 83 3d 6e 8a 0f bd
       0.008216662 0.081388436 0.06414223 -0.035044126
0000d0 56 ce 00 3e 98 5c ce 3d b4 71 d1 3d a8 e1 7a bc
       0.12578711 0.100762546 0.10226765 -0.01531259
0000e0 b0 1d 05 bd 40 25 d2 3d ee c6 d6 bc ac 34 8e 3c
       -0.032499015 0.10261011 -0.026217904 0.0173591
0000f0 04 2f 6c 3d b1 28 c9 bc 82 1b 5d 3d 8d d4 03 3d
       0.057662025 -0.024555536 0.05398131 0.032185126

layers.6.weight f4 [32, 64]
000000 e1 a5 0f bf 96 82 24 bf 12 d5 08 3e bd 9a dd 3e
       -0.56112486 -0.6426176 0.1336253 0.43282118
000010 b8 8e 04 bd 13 28 ae 3e 83 ec 52 3e 81 57 98 3e
       -0.03236267 0.3401495 0.20598035 0.2975426
000020 c8 86 56 3e bc e6 af 3d d6 69 9b 3e bc fe 2e bd
       0.20949852 0.08588931 0.30354184 -0.042723402
000030 63 e2 05 bf fa 37 83 3e 37 43 f2 bd 0b be 18 bf
       -0.52298564 0.25628644 -0.118292265 -0.5966498
000040 3e 90 f2 bd 77 77 c9 3e b0 26 dc be ac 88 57 3f
       -0.11843918 0.39348957 -0.42998266 0.8419292
000050 91 57 34 3e 1d 3d e3 bd cc 00 95 be b0 cc aa bd
       0.17611529 -0.11095641 -0.2910217 -0.08339822
000060 69 75 9e 3e 68 5e df 3d 33 0b 01 3f e7 90 7c 3e
       0.30948952 0.109066784 0.50407714 0.24664651
000070 f5 c6 6a 3e 26 da de 3d 59 0e 1b bd 12 c6 fa be
       0.22927459 0.10881452 -0.03785548 -0.4897924
000080 c3 7c 53 3e 16 49 34 3e 20 f5 df 3d b7 a6 00 3f
       0.20653062 0.17606005 0.10935426 0.50254387
000090 7a 0a 8d 3e 15 0e 3d 3e e0 0d 42 3e bb 39 60 3e
       0.27547055 0.18462403 0.18950605 0.21897022
0000a0 10 4e ec 3e c6 69 d4 3e 49 fe 9b be 41 c7 6b 3e
       0.46153307 0.4148695 -0.30467442 0.23025228
0000b0 10 af b9 be ea 9e e4 be 3d fe f0 3d 29 eb 21 3d
       -0.36266375 -0.44652492 0.11767242 0.039530907
0000c0 d2 d8 0c bf 5f 15 25 3e b0 bd 90 3e 0f e5 fa be
       -0.5501834 0.16121434 0.2826972 -0.49002883
0000d0 b3 36 a2 3e a8 36 ba be 1c a4 bd 3c 94 67 c5 3e
       0.31682357 -0.36369824 0.023149543 0.38555586
0000e0 94 5a 57 3d f9 c4 c7 3d 72 68 57 3c 95 94 83 be
       0.052576616 0.097543664 0.01314746 -0.25699297
0000f0 e5 9d a0 be 0e 0d d7 bc 69 a4 28 be cb b9 e1 bc
       -0.31370464 -0.026251342 -0.16468967 -0.027554413
000100 90 2a 15 be e0 46 fd bd 99 25 0f bd 75 db 06 be
       -0.14567018 -0.12367034 -0.034947965 -0.13169654
000110 a0 e0 77 bc 6a 03 5b bd 12 33 30 bc 72 d9 27 3d
       -0.015129238 -0.053470053 -0.010754364 0.040978856
000120 9d bd aa bd 57 de 79 3b 44 57 0b be 4a 7f eb bc
       -0.08336947 0.003812691 -0.13607508 -0.02874722
000130 d6 2b 9c 3c 17 de cf bd 8c ae 58 3d f9 04 96 bd
       0.019063871 -0.10149782 0.052900836 -0.07325167
000140 10 83 34 bd 14 32 f4 bd 45 88 6c bd f0 14 b9 3d
       -0.044070303 -0.11923614 -0.057747144 0.09037197
000150 3e e2 a7 bd 30 bb cb bc e6 53 c7 bd 61 22 23 3d
       -0.08197449 -0.024869531 -0.09732799 0.03982771
000160 02 3a 8d bd 48 b6 ac bd 93 e4 e1 bc 45 a7 0b bd
       -0.0689583 -0.08433205 -0.027574813 -0.034095068
000170 7a 87 1d bd e9 77 6c bc d8 25 cd 3c f0 06 98 3d
       -0.03845928 -0.014432886 0.02504246 0.07423198
000180 89 22 50 bc c5 cb 41 3d 0e b7 08 bd 40 3b fb 3c
       -0.012703546 0.04731347 -0.0333777 0.030667901
000190 c9 da 6b 3d a7 e3 00 bd 4a 4b 93 3d e4 ee af 3d
       0.057581697 -0.031467106 0.071920946 0.08590487
0001a0 77 7a 96 3d 69 e5 b4 bd 98 ce 7b 3d 7f 25 06 bd
       0.07347577 -0.08832819 0.06147632 -0.032750603
0001b0 a9 15 6c bd 22 f3 96 bd 14 86 9c bd 40 8d 9c bc
       -0.057637844 -0.07370593 -0.07642761 -0.019110322
0001c0 0e 97 7e 3d e3 ed ed bd 03 5a 04 be 23 f3 2d bc
       0.062155776 -0.11617639 -0.12924962 -0.01061705
0001d0 47 32 29 3d 0a 5b f2 bd 4b 68 98 bd 20 41 8d 3c
       0.041307714 -0.118337706 -0.07441767 0.017242968
0001e0 0e 88 bc bd 3d d8 0d be 5f 48 bf bd d7 73 6d 3d
       -0.09205638 -0.1385202 -0.093399756 0.0579718
0001f0 07 e7 87 3d 88 c8 b2 3c 7e 89 a8 bd 4c 4c f5 bc
       0.06635862 0.021824136 -0.082293496 -0.029943608
000200 f3 0e 2a bf 70 14 21 bd 23 af ba 3d 83 61 8d 3c
       -0.6642906 -0.03932613 0.09115436 0.017258411
000210 20 93 94 bd 5b f5 b1 3e 5c 7b 2e 3e 34 a0 0d 3e
       -0.07254624 0.34757504 0.17039245 0.13830644
000220 7f f7 87 3c 89 7f 60 be fd a3 3e 3f ff d8 86 3e
       0.016597508 -0.21923651 0.74468976 0.2633743
000230 99 db c3 bd 7c a7 d0 3d 56 19 f8 bd c5 63 63 bd
       -0.09563369 0.10188195 -0.121142074 -0.05551507
000240 9d b1 bd 3d b3 34 22 bd b2 56 86 3d 21 73 1f 3f
       0.09262393 -0.03960104 0.065595046 0.6228505
000250 04 71 39 3e 3b 46 61 3d 1e a3 85 bf c0 f3 b7 3e
       0.18109518 0.054998618 -1.0440404 0.35928154
000260 d3 d7 8a 3e 75 b5 52 3e 7a 81 1a 3f 88 ac 80 3e
       0.27117786 0.20577033 0.60353816 0.2513163
000270 c1 8a 9f 3e 06 9b 4c 3e e2 e1 dc 3d 21 51 91 3d
       0.31160548 0.19981012 0.10785271 0.07095552
000280 5b 87 2d 3e 81 f2 d5 3e dc 2a b6 3d df 85 a6 3e
       0.16946165 0.41786578 0.088948935 0.3252401
000290 b8 a7 26 3d 0e dc 1e bd 64 66 e6 bd f2 58 a6 3e
       0.040687293 -0.03878408 -0.11249998 0.32489735
0002a0 78 61 07 3f cf 93 2e 3f a9 c8 19 3e 16 b0 0a be
       0.528831 0.6819429 0.15017952 -0.13543734
0002b0 b7 c9 ac 3d f7 27 31 bf 1d 50 a9 3d 22 0c 3d 3e
       0.084369116 -0.69201607 0.082672335 0.1846166
0002c0 59 0a bf bd cf 9c 1f 3e 3c f0 b8 3e da 4b 6a bf
       -0.093281455 0.15587161 0.36120784 -0.9152199
0002d0 5f df 14 3e 57 0d 7c bb e4 fc 7c 3e 61 a3 22 3e
       0.14538334 -0.00384601 0.24705845 0.15882637
0002e0 40 33 ba 3a 48 8c 05 3e d6 e8 dc 3d e4 d3 49 bd
       0.0014205948 0.13041794 0.107865974 -0.04927434
0002f0 e2 4e 8e 3d 6e 72 e1 3d a8 12 38 3e 16 68 7b 3e
       0.069486395 0.11008154 0.17975867 0.24551424
000300 e0 0a 6c bf 95 73 6c be d2 5b 1c 3f 91 71 1e 3f
       -0.92204094 -0.23090966 0.61077607 0.6189204
000310 bc 57 6a 3d c3 39 0c bd b3 d4 af 3d cf fb 1a 3d
       0.057212576 -0.034234773 0.08585491 0.0378378
000320 81 34 88 3d 02 3c 96 bc 61 4d 3c 3e 77 66 23 be
       0.06650639 -0.01833916 0.18388893 -0.15957056
000330 66 1c 18 bf 1e e8 ca bc c9 46 3a bc 8a a5 4a 3d
       -0.5941833 -0.024768885 -0.011369416 0.049474277
000340 30 50 12 3c 4c cd f4 3d bb 45 b3 3e bb 64 93 3f
       0.008930251 0.1195322 0.35014138 1.1515115
000350 08 ea 9a 3e 2e d8 b7 be 41 97 5b bf e2 62 99 3f
       0.30256677 -0.3590712 -0.8577767 1.1983302
000360 fe 10 25 bc 99 68 d8 bc 5f 4f 35 3e 6b 18 83 3e
       -0.010074852 -0.026417064 0.17706059 0.25604567
000370 0f 63 09 3e 84 45 c8 bd 94 00 82 bd 7a 17 f9 bd
       0.13416694 -0.09778884 -0.063477665 -0.12162681
000380 8c 97 1f 3f e4 14 9f bd b0 26 ba bd 05 eb 55 3f
       0.6234062 -0.077676564 -0.0908941 0.83561736
000390 12 e2 92 3c ec 61 cc 3e 03 a7 38 3f b3 49 9b 3e
       0.017930064 0.39918458 0.7212984 0.30329666
0003a0 ef 71 30 3f af e9 00 3e a2 2d 0f be 78 58 f6 3e
       0.6892385 0.12589143 -0.13982251 0.4811437
0003b0 60 98 8d 3f c7 6f 41 bf 51 cf ea 3a 2e 2d 5f 3e
       1.1062126 -0.75561184 0.0017914568 0.21794578
0003c0 99 5a b6 be ea d6 d7 3d 06 74 87 3d a9 5a 44 bf
       -0.35615996 0.105390385 0.066139266 -0.76700836
0003d0 b2 2a 40 3d 8e 1d 32 bf 0f 6a 12 3c ce 84 1c 3f
       0.046915717 -0.69576347 0.008936419 0.61140144
0003e0 b6 71 95 bd 5c a7 d5 3d 6a 94 15 3f a4 df cd bd
       -0.07297079 0.10432312 0.58429587 -0.10052422
0003f0 68 44 d5 be b6 d6 43 bd a7 7e 87 be 85 a0 8b be
       -0.41653752 -0.047812186 -0.26463816 -0.27270904

layers.6.bias f4 [32]
000000 a9 f1 c7 3b c2 1c 05 be 42 80 47 bd f1 1d 88 bd
       0.006101806 -0.12999251 -0.0487063 -0.06646336
000010 22 73 9b 3e 22 eb d3 3e 88 b9 db 3c 21 c1 87 3e
       0.30361277 0.4139033 0.026821867 0.26514533
000020 f9 e8 dd 3e ab 5f 39 3e 76 b6 23 3e 43 e5 b4 3c
       0.43341807 0.181029 0.15987572 0.022081977
000030 ac ae aa bd 6c 68 17 be 75 d6 3e 3e 89 0b 4b 3e
       -0.08334097 -0.14785928 0.18636496 0.19828619
000040 a8 e4 91 bd 36 9b 63 3e a1 41 8e 3c 0a 21 60 3e
       -0.07123691 0.22227177 0.017365279 0.21887603
000050 27 49 31 3d 8c fc 82 3e 9c dd 0a 3e a6 43 1f 3d
       0.043282654 0.25583303 0.135611 0.038882874
000060 ff a4 63 bd 7c 8d 43 3d 81 78 e0 3d ad 6b 8c 3b
       -0.055577274 0.047742352 0.10960484 0.004285297
000070 51 bb 51 3e b2 27 dc 3e b8 33 d5 3d 70 26 8a 3e
       0.20481612 0.42999035 0.10410255 0.2698245

layers.8.weight f4 [6, 32]
000000 39 fb f0 bd f7 75 a8 bd 01 32 2e bf be 93 d0 3d
       -0.11766667 -0.08225625 -0.6804505 0.101844296
000010 ef db 80 3e 50 3d ae 3e e6 76 bb be e9 45 32 be
       0.25167796 0.34031153 -0.3661415 -0.17409481
000020 11 75 af be 90 bd a5 3d 99 be 3e 3f 71 75 98 3d
       -0.34269002 0.08092797 0.7450958 0.07444275
000030 76 07 ef bd d2 d1 80 3c 16 d2 c0 3d 15 6c 04 bd
       -0.11671345 0.01572505 0.09415071 -0.032329638
000040 e1 6e 83 bc 5d 91 e1 be f4 5b c1 3e 3e 94 0d be
       -0.016044082 -0.44056216 0.37765467 -0.13826081
000050 ae f0 c4 3e f7 b4 84 be ee a4 a6 bc aa 1e 0b bf
       0.38464874 -0.25919315 -0.020342316 -0.54343665
000060 a2 cf 08 3e 7b 5b 7d 3e d2 c5 8a be 0b cd 56 bf
       0.13360456 0.24741928 -0.2710405 -0.8390662
000070 3a 21 8e 3e 60 9f 47 bf 27 c9 15 bf 12 f5 08 be
       0.27759725 -0.7797756 -0.5851006 -0.13374737
000080 11 44 37 bf 26 d1 ac 3b e9 04 20 3e f7 6b ff 3d
       -0.71588236 0.005273956 0.15626873 0.124717645
000090 b2 a0 86 3e 4b 60 e2 be b6 f8 25 bd 9b 32 f3 be
       0.26294476 -0.4421409 -0.040520392 -0.47499546
0000a0 3c 96 55 be 1a 9b 37 bf 25 3e cc be 3f 94 9a bd
       -0.20858091 -0.7172104 -0.39891163 -0.07547807
0000b0 00 db 09 3e b8 6a 91 3d c0 a2 61 be 5b 55 54 be
       0.13462448 0.07100433 -0.2203474 -0.20735686
0000c0 90 2c 21 be a2 81 00 bf c6 b0 29 3e fd 7b c4 be
       -0.15739655 -0.50197804 0.1657134 -0.38375846
0000d0 cb 1b 7d 3c 99 d2 9b 3e 01 04 9d be a0 d5 f0 3e
       0.015448521 0.3043411 -0.30667117 0.47037983
0000e0 1d 61 61 3e 4e ac 77 3e 5e c4 8c 3d 13 3b cf 3e
       0.22009702 0.24186823 0.068733916 0.40474758
0000f0 69 19 9e 3e 66 05 88 3b 51 6f 48 3f b4 a6 53 bf
       0.3087876 0.004151034 0.78294855 -0.82676244
000100 a9 72 81 be 2c 49 48 3d 17 7f 17 bf f0 42 19 bf
       -0.2528279 0.048897907 -0.591783 -0.59867764
000110 39 e1 1d 3f 25 41 79 3f 46 2f 46 3e 4b 38 fc 3d
       0.6167179 0.9736503 0.19353971 0.123154245
000120 49 14 ee 3d bd 7a da bc 10 d4 67 3e 80 ab 1f bf
       0.11624963 -0.026669854 0.22639489 -0.62371063
000130 bc 87 22 be 5f 68 c9 3d 0b ab d2 3d 8a 29 ae 3e
       -0.15872091 0.0983436 0.1028653 0.34016067
000140 a3 8e d9 bd 32 03 15 be 21 2d 15 bd d2 b2 cc 3e
       -0.10622909 -0.14552 -0.03641999 0.3998018
000150 fa de 09 bf 94 19 1e 3e 14 79 83 3e c3 a9 fb 3e
       -0.5385586 0.15439445 0.25678313 0.49152955
000160 74 b8 6b bf d6 ef 1b bf 2c 86 26 bf 6b fc b8 bd
       -0.9207833 -0.60912836 -0.6504848 -0.0903252
000170 3b 28 aa be 9a 6c 91 3e d7 88 af 3e 6e 9d a7 3e
       -0.33233818 0.2840317 0.34284088 0.32737297
000180 66 42 d9 bd 87 58 13 be ff 64 01 3e 95 0c a3 bf
       -0.106083676 -0.14389239 0.12636183 -1.2738215
000190 d7 16 8d bc b5 0d 17 bf 6e 1b 79 bf 7d c0 09 3d
       -0.017222805 -0.5900529 -0.9730748 0.033630837
0001a0 46 0a ac 3e 05 69 a0 3e 90 37 38 bf 1b 26 18 3f
       0.33601588 0.31330124 -0.7195978 0.59433144
0001b0 6a 34 c2 bd 34 52 6f bc e6 b0 0c bf c2 37 2b bf
       -0.094826534 -0.014607001 -0.54957426 -0.66881955
0001c0 d6 1e c1 3c 8a 2c 14 3f 39 ff c3 be fa 4e 22 bd
       0.023574274 0.5788046 -0.38280657 -0.0396261
0001d0 3c 1d 80 be fe e7 3b 3e 4d 19 0c bf a0 c8 1f bd
       -0.25022304 0.18350217 -0.54726106 -0.03900969
0001e0 1e d1 ab 3d c4 40 82 3e df e4 f1 3e 35 57 5c 3e
       0.08389495 0.25440037 0.47244927 0.21517642
0001f0 47 f9 64 bf ff ec 23 3e 70 19 d9 be 5a 70 31 3e
       -0.8944287 0.16008376 -0.4240222 0.17328015
000200 a5 c7 98 3e da 40 7a bd e5 3c af 3e 60 89 9f 3f
       0.29839817 -0.061097004 0.34226146 1.2463799
000210 e7 6d 30 bf a2 64 a7 bf d7 8d f2 bf 71 84 5c 3e
       -0.689177 -1.3077586 -1.8949536 0.21534897
000220 b9 f8 1b 3e c7 21 c7 3e 0a 6d 94 3c f0 ce d8 be
       0.15231599 0.38892958 0.0181184 -0.4234538
000230 86 51 24 3e dd cc 94 3d f0 3f bd 3e ee fb ed be
       0.16046724 0.07265637 0.36962843 -0.4648127
000240 ce 37 10 be b0 8c 1e be 15 2e 29 bf 64 94 dd 3e
       -0.14083788 -0.15483356 -0.6608594 0.43277276
000250 b0 a9 6f be c8 9c bb 3d 73 92 da 3e 61 ac 57 bf
       -0.23404574 0.09160763 0.42689857 -0.84247404
000260 b6 db 22 3e c2 0a 01 bf 87 00 b3 bb af 32 26 3e
       0.15904126 -0.5040704 -0.0054627093 0.16230272
000270 7a 80 e7 be 13 57 f3 3d 12 36 68 bc de 9a 27 3e
       -0.45215207 0.118818425 -0.014173048 0.16367671
000280 73 4c bd be a5 50 dd 3d 8e 6c 3c be c6 69 bb be
       -0.3697239 0.10806397 -0.18400785 -0.36604136
000290 46 21 1c bf c6 82 cb be 4c ce ef 3e 49 6c 85 3e
       -0.6098827 -0.3974821 0.4683708 0.26059178
0002a0 4b d2 07 bf 31 2e 93 be e5 4d 15 bf 25 7b 01 be
       -0.53055257 -0.2874618 -0.5832198 -0.12644632
0002b0 4b 9b 0b 3e 0d 67 ba 3d 46 e5 83 3e 3e 90 d5 3e
       0.13633458 0.091016866 0.2576086 0.4171161
0002c0 d3 11 9c 3d 3e c9 64 3e 15 48 29 be 56 2a 20 bf
       0.07620587 0.22342393 -0.16531403 -0.625646
0002d0 8b 04 3d bd 86 a9 55 bf d9 a7 f0 bb d0 9c c2 bd
       -0.04614691 -0.834618 -0.0073442277 -0.09502566
0002e0 9d da aa bc 95 cd 9d 3e 50 1e 81 be 30 f2 c0 be
       -0.020856196 0.3082091 -0.2521844 -0.37684774
0002f0 c8 b6 92 3e e2 86 ca 3d 2b cb 4a bf 1f 85 5b be
       0.28655076 0.09889008 -0.7921626 -0.214375

layers.8.bias f4 [6]
000000 6c 82 b0 3d e0 36 07 be b8 8e b4 3e 58 7f 25 3d
       0.08618626 -0.13204527 0.35265136 0.040404648
000010 f1 e1 38 bc 7e 9e 7f 3d
       -0.011284337 0.06240701
